_________________________________________________________________
Layer (type)                 Output Shape              Param #   
=================================================================
input_1 (InputLayer)         (None, 32, 3)             0         
_________________________________________________________________
conv1d_1 (Conv1D)            (None, 32, 16)            400       
_________________________________________________________________
max_pooling1d_1 (MaxPooling1 (None, 8, 16)             0         
_________________________________________________________________
flatten_1 (Flatten)          (None, 128)               0         
_________________________________________________________________
dense_1 (Dense)              (None, 1)                 129       
_________________________________________________________________
dense_2 (Dense)              (None, 128)               256       
_________________________________________________________________
reshape_1 (Reshape)          (None, 8, 16)             0         
_________________________________________________________________
up_sampling1d_1 (UpSampling1 (None, 32, 16)            0         
_________________________________________________________________
conv1d_2 (Conv1D)            (None, 32, 16)            2064      
_________________________________________________________________
dense_3 (Dense)              (None, 32, 3)             51        
_________________________________________________________________
masking_1 (Masking)          (None, 32, 3)             0         
=================================================================
Total params: 2,900
Trainable params: 2,900
Non-trainable params: 0
_________________________________________________________________
#batch size: batchSize = 10000
#Specify filter window size: filterWindow = 8
#Specify stride: stride= 1 
#Number of filters: nFilters = 16 
#Specify input size: inputSize = 22 
#Number of samples: nSamples = 20000 
…
