_________________________________________________________________
Layer (type)                 Output Shape              Param #   
=================================================================
input_1 (InputLayer)         (None, 128, 3)            0         
_________________________________________________________________
conv1d_1 (Conv1D)            (None, 128, 16)           400       
_________________________________________________________________
max_pooling1d_1 (MaxPooling1 (None, 32, 16)            0         
_________________________________________________________________
conv1d_2 (Conv1D)            (None, 32, 16)            2064      
_________________________________________________________________
max_pooling1d_2 (MaxPooling1 (None, 8, 16)             0         
_________________________________________________________________
flatten_1 (Flatten)          (None, 128)               0         
_________________________________________________________________
dense_1 (Dense)              (None, 2)                 258       
_________________________________________________________________
dense_2 (Dense)              (None, 128)               384       
_________________________________________________________________
reshape_1 (Reshape)          (None, 8, 16)             0         
_________________________________________________________________
up_sampling1d_1 (UpSampling1 (None, 32, 16)            0         
_________________________________________________________________
conv1d_3 (Conv1D)            (None, 32, 16)            2064      
_________________________________________________________________
up_sampling1d_2 (UpSampling1 (None, 128, 16)           0         
_________________________________________________________________
conv1d_4 (Conv1D)            (None, 128, 16)           2064      
_________________________________________________________________
dense_3 (Dense)              (None, 128, 3)            51        
=================================================================
Total params: 7,285
Trainable params: 7,285
Non-trainable params: 0
_________________________________________________________________
#batch size: batchSize = 500
#Specify filter window size: filterWindow = 8
#Specify stride: stride= 1 
#Number of filters: nFilters = 16 
#Specify input size: inputSize = 103 
#Number of samples: nSamples = 1000 
…
