_________________________________________________________________
Layer (type)                 Output Shape              Param #   
=================================================================
input_1 (InputLayer)         (None, 128, 3)            0         
_________________________________________________________________
conv1d_1 (Conv1D)            (None, 128, 16)           400       
_________________________________________________________________
max_pooling1d_1 (MaxPooling1 (None, 32, 16)            0         
_________________________________________________________________
flatten_1 (Flatten)          (None, 512)               0         
_________________________________________________________________
dense_1 (Dense)              (None, 16)                8208      
_________________________________________________________________
dense_2 (Dense)              (None, 4)                 68        
_________________________________________________________________
dense_3 (Dense)              (None, 1)                 5         
_________________________________________________________________
dense_4 (Dense)              (None, 2)                 4         
_________________________________________________________________
dense_5 (Dense)              (None, 1)                 3         
_________________________________________________________________
dense_6 (Dense)              (None, 4)                 8         
_________________________________________________________________
dense_7 (Dense)              (None, 16)                80        
_________________________________________________________________
dense_8 (Dense)              (None, 512)               8704      
_________________________________________________________________
reshape_1 (Reshape)          (None, 32, 16)            0         
_________________________________________________________________
up_sampling1d_1 (UpSampling1 (None, 128, 16)           0         
_________________________________________________________________
conv1d_2 (Conv1D)            (None, 128, 3)            387       
=================================================================
Total params: 17,867
Trainable params: 17,867
Non-trainable params: 0
_________________________________________________________________
#batch size: batchSize = 100
#Specify filter window size: filterWindow = 8
#Specify stride: stride= 1 
#Number of filters: nFilters = 16 
#Specify input size: inputSize = 103 
#Number of samples: nSamples = 1000 
…
